…
n.rotary_emb.inv_freq', 'model.layers.16.self_attn.rotary_emb.inv_freq', 'model.layers.11.self_attn.rotary_emb.inv_freq', 'weighted_mask', 'model.layers.6.self_attn.rotary_emb.inv_freq', 'model.layers.10.self_attn.rotary_emb.inv_freq', 'model.layers.2.self_attn.rotary_emb.inv_freq']
You should probably TRAIN this model on a down-stream task to be able to use it for predictions and inference.
2026-01-13 18:31:46,093 - mmdet - INFO - Model:
Orion(
  (pts_bbox_head): OrionHead(
    (loss_cls): FocalLoss()
    (loss_bbox): L1Loss()
    (traj_branches): ModuleList(
      (0): Sequential(
        (0): Linear(in_features=512, out_features=512, bias=True)
        (1): ReLU()
        (2): Linear(in_features=512, out_features=512, bias=True)
        (3): ReLU()
        (4): Linear(in_features=512, out_features=12, bias=True)
      )
    )
    (traj_cls_branches): ModuleList(
      (0): Sequential(
        (0): Linear(in_features=512, out_features=512, bias=True)
        (1): LayerNorm((512,), eps=1e-05, elementwise_affine=True)
        (2): ReLU(inplace=True)
        (3): Linear(in_features=512, out_features=512, bias=True)
        (4): LayerNorm((512,), eps=1e-05, elementwise_affine=True)
        (5): ReLU(inplace=True)
        (6): Linear(in_features=512, out_features=1, bias=True)
      )
    )
    (cls_branches): ModuleList(
      (0-5): 6 x Sequential(
        (0): Linear(in_features=256, out_features=256, bias=True)
        (1): LayerNorm((256,), eps=1e-05, elementwise_affine=True)
        (2): ReLU(inplace=True)
        (3): Linear(in_features=256, out_features=256, bias=True)
        (4): LayerNorm((256,), eps=1e-05, elementwise_affine=True)
        (5): ReLU(inplace=True)
        (6): Linear(in_features=256, out_features=9, bias=True)
      )
    )
    (reg_branches): ModuleList(
      (0-5): 6 x Sequential(
        (0): Linear(in_features=256, out_features=256, bias=True)
        (1): ReLU()
        (2): Linear(in_features=256, out_features=256, bias=True)
        (3): ReLU()
        (4): Linear(in_features=256, out_features=10, bias=True)
      )
    )
    (input_projection): Linear(in_features=1024, out_features=256, bias=True)
    (output_projection): Linear(in_features=256, out_features=4096, bias=True)
    (reference_points): Embedding(600, 3)
    (pseudo_reference_points): Embedding(300, 3)
    (query_embedding): Embedding(256, 256)
    (can_bus_embed): Sequential(
      (0): Linear(in_features=89, out_features=1024, bias=True)
      (1): ReLU()
      (2): Linear(in_features=1024, out_features=4096, bias=True)
    )
    (loss_traj): L1Loss()
    (loss_traj_cls): FocalLoss()
    (loss_iou): GIoULoss()
    (transformer): PETRTemporalTransformer(
      (query_decoder): PETRTransformerDecoder(
        (_layers): ModuleList(
          (0-5): 6 x PETRTransformerDecoderLayer(
            (transformer_layers): ModuleList(
              (0): MultiHeadAttentionwDropout(
                (attn): MultiheadAttention(
                  (out_proj): NonDynamicallyQuantizableLinear(in_features=256, out_features=256, bias=True)
                )
                (proj_drop): Dropout(p=0.1, inplace=False)
              )
              (1): LayerNorm((256,), eps=1e-05, elementwise_affine=True)
              (2): MultiHeadAttentionwDropout(
                (attn): FlashMHA(
                  (inner_attn): FlashAttention()
                  (out_proj): Linear(in_features=256, out_features=256, bias=True)
                )
                (proj_drop): Dropout(p=0.1, inplace=False)
              )
              (3): LayerNorm((256,), eps=1e-05, elementwise_affine=True)
              (4): FFN(
                (_layers): Sequential(
                  (0): Linear(in_features=256, out_features=2048, bias=True)
                  (1): ReLU(inplace=True)
                  (2): Dropout(p=0.1, inplace=False)
                  (3): Linear(in_features=2048, out_features=256, bias=True)
                  (4): Dropout(p=0.1, inplace=False)
                )
              )
              (5): LayerNorm((256,), eps=1e-05, elementwise_affine=True)
            )
          )
        )
      )
    )
    (motion_decoder): OrionTransformerDecoder(
      (_layers): ModuleList(
        (0): OrionTransformerDecoderLayer(
          (transformer_layers): ModuleList(
            (0): MultiHeadAttentionwDropout(
              (attn): FlashMHA(
                (inner_attn): FlashAttention()
                (out_proj): Linear(in_features=256, out_features=256, bias=False)
              )
              (proj_drop): Dropout(p=0.0, inplace=False)
            )
            (1): LayerNorm((256,), eps=1e-05, elementwise_affine=True)
            (2): FFN(
              (_layers): Sequential(
                (0): Linear(in_features=256, out_features=512, bias=True)
                (1): ReLU(inplace=True)
                (2): Dropout(p=0.0, inplace=False)
                (3): Linear(in_features=512, out_features=256, bias=True)
                (4): Dropout(p=0.0, inplace=False)
              )
            )
            (3): LayerNorm((256,), eps=1e-05, elementwise_affine=True)
          )
        )
      )
    )
    (motion_mode_query): Embedding(6, 256)
    (memory_query): Embedding(16, 256)
    (scene_time_embedding): Sequential(
      (0): Linear(in_features=256, out_features=256, bias=True)
      (1): LayerNorm((256,), eps=1e-05, elementwise_affine=True)
    )
    (memory_decoder_cq): OrionTransformerDecoder(
      (_layers): ModuleList(
        (0): OrionTransformerDecoderLayer(
          (transformer_layers): ModuleList(
            (0): MultiHeadAttentionwDropout(
              (attn): FlashMHA(
                (inner_attn): FlashAttention()
                (out_proj): Linear(in_features=256, out_features=256, bias=False)
              )
              (proj_drop): Dropout(p=0.0, inplace=False)
            )
            (1): LayerNorm((256,), eps=1e-05, elementwise_affine=True)
            (2): FFN(
              (_layers): Sequential(
                (0): Linear(in_features=256, out_features=512, bias=True)
                (1): ReLU(inplace=True)
                (2): Dropout(p=0.0, inplace=False)
                (3): Linear(in_features=512, out_features=256, bias=True)
                (4): Dropout(p=0.0, inplace=False)
              )
            )
            (3): LayerNorm((256,), eps=1e-05, elementwise_affine=True)
          )
        )
      )
    )
    (memory_decoder_mq): OrionTransformerDecoder(
      (_layers): ModuleList(
        (0): OrionTransformerDecoderLayer(
          (transformer_layers): ModuleList(
            (0): MultiHeadAttentionwDropout(
              (attn): FlashMHA(
                (inner_attn): FlashAttention()
                (out_proj): Linear(in_features=256, out_features=256, bias=False)
              )
              (proj_drop): Dropout(p=0.0, inplace=False)
            )
            (1): LayerNorm((256,), eps=1e-05, elementwise_affine=True)
            (2): FFN(
              (_layers): Sequential(
                (0): Linear(in_features=256, out_features=512, bias=True)
                (1): ReLU(inplace=True)
                (2): Dropout(p=0.0, inplace=False)
                (3): Linear(in_features=512, out_features=256, bias=True)
                (4): Dropout(p=0.0, inplace=False)
              )
            )
            (3): LayerNorm((256,), eps=1e-05, elementwise_affine=True)
          )
        )
      )
    )
    (loss_traffic): FocalLoss()
    (tl_branches): ModuleList(
      (0-5): 6 x Sequential(
        (0): Linear(in_features=256, out_features=256, bias=True)
        (1): LayerNorm((256,), eps=1e-05, elementwise_affine=True)
        (2): ReLU(inplace=True)
        (3): Linear(in_features=256, out_features=256, bias=True)
        (4): LayerNorm((256,), eps=1e-05, elementwise_affine=True)
        (5): ReLU(inplace=True)
        (6): Linear(in_features=256, out_features=4, bias=True)
      )
    )
    (query_pos): Sequential(
      (0): Linear(in_features=396, out_features=256, bias=True)
      (1): ReLU()
      (2): Linear(in_features=256, out_features=256, bias=True)
    )
    (time_embedding): Sequential(
      (0): Linear(in_features=256, out_features=256, bias=True)
      (1): LayerNorm((256,), eps=1e-05, elementwise_affine=True)
    )
    (ego_pose_pe): MLN(
      (reduce): Sequential(
        (0): Linear(in_features=156, out_features=256, bias=True)
        (1): ReLU()
      )
      (gamma): Linear(in_features=256, out_features=256, bias=True)
      (beta): Linear(in_features=256, out_features=256, bias=True)
      (ln): LayerNorm((256,), eps=1e-05, elementwise_affine=False)
    )
  )
  (img_backbone): EVAViT(
    (patch_embed): PatchEmbed(
      (proj): Conv2d(3, 1024, kernel_size=(16, 16), stride=(16, 16))
    )
    (rope_win): VisionRotaryEmbeddingFast()
    (rope_glb): VisionRotaryEmbeddingFast()
    (blocks): ModuleList(
      (0): Block(
        (norm1): LayerNorm((1024,), eps=1e-06, elementwise_affine=True)
        (attn): Attention(
          (q_proj): Linear(in_features=1024, out_features=1024, bias=False)
          (k_proj): Linear(in_features=1024, out_features=1024, bias=False)
          (v_proj): Linear(in_features=1024, out_features=1024, bias=False)
          (rope): VisionRotaryEmbeddingFast()
          (proj): Linear(in_features=1024, out_features=1024, bias=True)
          (inner_attn_ln): Identity()
          (inner_attn): FlashAttention()
        )
        (drop_path): Identity()
        (norm2): LayerNorm((1024,), eps=1e-06, elementwise_affine=True)
        (mlp): SwiGLU(
          (w1): Linear(in_features=1024, out_features=2730, bias=True)
          (w2): Linear(in_features=1024, out_features=2730, bias=True)
          (act): SiLU()
          (ffn_ln): LayerNorm((2730,), eps=1e-06, elementwise_affine=True)
          (w3): Linear(in_features=2730, out_features=1024, bias=True)
          (drop): Dropout(p=0.0, inplace=False)
        )
      )
      (1-23): 23 x Block(
        (norm1): LayerNorm((1024,), eps=1e-06, elementwise_affine=True)
        (attn): Attention(
          (q_proj): Linear(in_features=1024, out_features=1024, bias=False)
          (k_proj): Linear(in_features=1024, out_features=1024, bias=False)
          (v_proj): Linear(in_features=1024, out_features=1024, bias=False)
          (rope): VisionRotaryEmbeddingFast()
          (proj): Linear(in_features=1024, out_features=1024, bias=True)
          (inner_attn_ln): Identity()
          (inner_attn): FlashAttention()
        )
        (drop_path): DropPath()
        (norm2): LayerNorm((1024,), eps=1e-06, elementwise_affine=True)
        (mlp): SwiGLU(
          (w1): Linear(in_features=1024, out_features=2730, bias=True)
          (w2): Linear(in_features=1024, out_features=2730, bias=True)
          (act): SiLU()
          (ffn_ln): LayerNorm((2730,), eps=1e-06, elementwise_affine=True)
          (w3): Linear(in_features=2730, out_features=1024, bias=True)
          (drop): Dropout(p=0.0, inplace=False)
        )
      )
    )
  )
  (grid_mask): GridMask()
  (query_pos): Sequential(
    (0): Linear(in_features=396, out_features=256, bias=True)
    (1): ReLU()
    (2): Linear(in_features=256, out_features=256, bias=True)
  )
  (time_embedding): Sequential(
    (0): Linear(in_features=256, out_features=256, bias=True)
    (1): LayerNorm((256,), eps=1e-05, elementwise_affine=True)
  )
  (ego_pose_pe): MLN(
    (reduce): Sequential(
      (0): Linear(in_features=156, out_features=256, bias=True)
      (1): ReLU()
    )
    (gamma): Linear(in_features=256, out_features=256, bias=True)
    (beta): Linear(in_features=256, out_features=256, bias=True)
    (ln): LayerNorm((256,), eps=1e-05, elementwise_affine=False)
  )
  (map_head): OrionHeadM(
    (loss_cls): FocalLoss()
    (loss_bbox): L1Loss()
    (cls_branches): ModuleList(
      (0-5): 6 x Sequential(
        (0): Linear(in_features=256, out_features=256, bias=True)
        (1): LayerNorm((256,), eps=1e-05, elementwise_affine=True)
        (2): ReLU(inplace=True)
        (3): Linear(in_features=256, out_features=256, bias=True)
        (4): LayerNorm((256,), eps=1e-05, elementwise_affine=True)
        (5): ReLU(inplace=True)
        (6): Linear(in_features=256, out_features=6, bias=True)
      )
    )
    (reg_branches): ModuleList(
      (0-5): 6 x Sequential(
        (0): Linear(in_features=256, out_features=256, bias=True)
        (1): ReLU()
        (2): Linear(in_features=256, out_features=256, bias=True)
        (3): ReLU()
        (4): Linear(in_features=256, out_features=33, bias=True)
      )
    )
    (input_projection): Linear(in_features=1024, out_features=256, bias=True)
    (output_projection): Linear(in_features=256, out_features=4096, bias=True)
    (reference_points_lane): Linear(in_features=256, out_features=3, bias=True)
    (points_embedding_lane): Embedding(11, 256)
    (instance_embedding_lane): Embedding(1800, 256)
    (query_embedding): Embedding(256, 256)
    (loss_dir): PtsDirCosLoss()
    (transformer): PETRTemporalTransformer(
      (query_decoder): PETRTransformerDecoder(
        (_layers): ModuleList(
          (0-5): 6 x PETRTransformerDecoderLayer(
            (transformer_layers): ModuleList(
              (0): MultiHeadAttentionwDropout(
                (attn): MultiheadAttention(
                  (out_proj): NonDynamicallyQuantizableLinear(in_features=256, out_features=256, bias=True)
                )
                (proj_drop): Dropout(p=0.1, inplace=False)
              )
              (1): LayerNorm((256,), eps=1e-05, elementwise_affine=True)
              (2): MultiHeadAttentionwDropout(
                (attn): FlashMHA(
                  (inner_attn): FlashAttention()
                  (out_proj): Linear(in_features=256, out_features=256, bias=True)
                )
                (proj_drop): Dropout(p=0.1, inplace=False)
              )
              (3): LayerNorm((256,), eps=1e-05, elementwise_affine=True)
              (4): FFN(
                (_layers): Sequential(
                  (0): Linear(in_features=256, out_features=2048, bias=True)
                  (1): ReLU(inplace=True)
                  (2): Dropout(p=0.1, inplace=False)
                  (3): Linear(in_features=2048, out_features=256, bias=True)
                  (4): Dropout(p=0.1, inplace=False)
                )
              )
              (5): LayerNorm((256,), eps=1e-05, elementwise_affine=True)
            )
          )
        )
      )
    )
    (query_pos): Sequential(
      (0): Linear(in_features=396, out_features=256, bias=True)
      (1): ReLU()
      (2): Linear(in_features=256, out_features=256, bias=True)
    )
    (time_embedding): Sequential(
      (0): Linear(in_features=256, out_features=256, bias=True)
      (1): LayerNorm((256,), eps=1e-05, elementwise_affine=True)
    )
    (ego_pose_pe): MLN(
      (reduce): Sequential(
        (0): Linear(in_features=156, out_features=256, bias=True)
        (1): ReLU()
      )
      (gamma): Linear(in_features=256, out_features=256, bias=True)
      (beta): Linear(in_features=256, out_features=256, bias=True)
      (ln): LayerNorm((256,), eps=1e-05, elementwise_affine=False)
    )
  )
  (position_encoder): Sequential(
    (0): Linear(in_features=192, out_features=1024, bias=True)
    (1): ReLU()
    (2): Linear(in_features=1024, out_features=256, bias=True)
  )
  (lm_head): PeftModelForCausalLM(
    (base_model): LoraModel(
      (model): LlavaLlamaForCausalLM(
        (model): LlavaLlamaModel(
          (embed_tokens): Embedding(32001, 2048)
          (layers): ModuleList(
            (0-21): 22 x LlamaDecoderLayer(
              (self_attn): LlamaAttention(
                (q_proj): lora.Linear(
                  (base_layer): Linear(in_features=2048, out_features=2048, bias=False)
                  (lora_dropout): ModuleDict(
                    (default): Dropout(p=0.05, inplace=False)
                  )
                  (lora_A): ModuleDict(
                    (default): Linear(in_features=2048, out_features=16, bias=False)
                  )
                  (lora_B): ModuleDict(
                    (default): Linear(in_features=16, out_features=2048, bias=False)
                  )
                  (lora_embedding_A): ParameterDict()
                  (lora_embedding_B): ParameterDict()
                  (lora_magnitude_vector): ModuleDict()
                )
                (k_proj): lora.Linear(
                  (base_layer): Linear(in_features=2048, out_features=256, bias=False)
                  (lora_dropout): ModuleDict(
                    (default): Dropout(p=0.05, inplace=False)
                  )
                  (lora_A): ModuleDict(
                    (default): Linear(in_features=2048, out_features=16, bias=False)
                  )
                  (lora_B): ModuleDict(
                    (default): Linear(in_features=16, out_features=256, bias=False)
                  )
                  (lora_embedding_A): ParameterDict()
                  (lora_embedding_B): ParameterDict()
                  (lora_magnitude_vector): ModuleDict()
                )
                (v_proj): lora.Linear(
                  (base_layer): Linear(in_features=2048, out_features=256, bias=False)
                  (lora_dropout): ModuleDict(
                    (default): Dropout(p=0.05, inplace=False)
                  )
                  (lora_A): ModuleDict(
                    (default): Linear(in_features=2048, out_features=16, bias=False)
                  )
                  (lora_B): ModuleDict(
                    (default): Linear(in_features=16, out_features=256, bias=False)
                  )
                  (lora_embedding_A): ParameterDict()
                  (lora_embedding_B): ParameterDict()
                  (lora_magnitude_vector): ModuleDict()
                )
                (o_proj): lora.Linear(
                  (base_layer): Linear(in_features=2048, out_features=2048, bias=False)
                  (lora_dropout): ModuleDict(
                    (default): Dropout(p=0.05, inplace=False)
                  )
                  (lora_A): ModuleDict(
                    (default): Linear(in_features=2048, out_features=16, bias=False)
                  )
                  (lora_B): ModuleDict(
                    (default): Linear(in_features=16, out_features=2048, bias=False)
                  )
                  (lora_embedding_A): ParameterDict()
                  (lora_embedding_B): ParameterDict()
                  (lora_magnitude_vector): ModuleDict()
                )
                (rotary_emb): LlamaRotaryEmbedding()
              )
              (mlp): LlamaMLP(
                (gate_proj): Linear(in_features=2048, out_features=5632, bias=False)
                (up_proj): Linear(in_features=2048, out_features=5632, bias=False)
                (down_proj): Linear(in_features=5632, out_features=2048, bias=False)
                (act_fn): SiLUActivation()
              )
              (input_layernorm): LlamaRMSNorm()
              (post_attention_layernorm): LlamaRMSNorm()
            )
          )
          (norm): LlamaRMSNorm()
        )
        (lm_head): Linear(in_features=2048, out_features=32001, bias=False)
      )
    )
  )
  (present_distribution): DistributionModule(
    (encoder): DistributionEncoder1DV2(
      (conv1): Conv1d(4096, 8192, kernel_size=(1,), stride=(1,))
      (conv2): Conv1d(8192, 8192, kernel_size=(1,), stride=(1,))
      (conv3): Conv1d(8192, 2048, kernel_size=(1,), stride=(1,))
      (relu): ReLU(inplace=True)
    )
    (last_conv): Sequential(
      (0): AdaptiveAvgPool1d(output_size=1)
      (1): Conv1d(2048, 64, kernel_size=(1,), stride=(1,))
    )
  )
  (future_distribution): DistributionModule(
    (encoder): DistributionEncoder1DV2(
      (conv1): Conv1d(4108, 8216, kernel_size=(1,), stride=(1,))
      (conv2): Conv1d(8216, 8216, kernel_size=(1,), stride=(1,))
      (conv3): Conv1d(8216, 2054, kernel_size=(1,), stride=(1,))
      (relu): ReLU(inplace=True)
    )
    (last_conv): Sequential(
      (0): AdaptiveAvgPool1d(output_size=1)
      (1): Conv1d(2054, 64, kernel_size=(1,), stride=(1,))
    )
  )
  (predict_model): PredictModel(
    (gru): GRU(32, 1024, num_layers=4)
    (linear1): Linear(in_features=1024, out_features=2048, bias=True)
    (linear2): Linear(in_features=2048, out_features=4096, bias=True)
    (linear3): Linear(in_features=4096, out_features=4096, bias=True)
    (relu): ReLU(inplace=True)
  )
  (ego_fut_decoder): Sequential(
    (0): Linear(in_features=8192, out_features=8192, bias=True)
    (1): ReLU()
    (2): Linear(in_features=8192, out_features=8192, bias=True)
    (3): ReLU()
    (4): Linear(in_features=8192, out_features=12, bias=True)
  )
  (loss_plan_reg): L1Loss()
  (loss_plan_bound): PlanMapBoundLoss()
  (loss_plan_col): PlanCollisionLoss()
  (loss_vae_gen): ProbabilisticLoss()
)
{'decay_rate': 0.9, 'head_decay_rate': 4.0, 'lm_head_decay_rate': 0.1, 'decay_type': 'vit_wise', 'num_layers': 24}
Build LearningRateDecayOptimizerConstructor vit_wise 0.900000 - 26
Param groups = {
  "layer_25_decay": {
…
